mnist.onnx (onnx, 105512 bytes, 8 tensors)

1 f4 [10, 1, 5, 5]
000000 df a8 e3 3d 3d df ee bd 38 f3 d4 bd 86 1d 55 3c
       0.11116194 -0.11663673 -0.10397953 0.013007527
000010 78 00 6d be a6 5e 27 3e 8d 07 e5 bc f8 7d ab 3d
       -0.2314471 0.163447 -0.027957702 0.08373636
000020 76 52 87 3c ef 9b 76 bc c3 92 10 3e 93 56 c2 3d
       0.016518813 -0.015051826 0.14118485 0.09489169
000030 09 d7 15 3e 5a db 95 3a 62 f0 47 3d 85 77 11 3d
       0.1463281 0.001143317 0.04881323 0.035514373
000040 a8 fc bb 3d 5f 17 81 3d 74 5a 73 3e 3c c8 00 3e
       0.0917905 0.06303286 0.23764974 0.12576383
000050 57 ee ad bd 06 33 12 be c3 98 88 bd 10 6d c2 bd
       -0.08492725 -0.14277276 -0.06669762 -0.09493458
000060 75 e8 1e bd a6 f3 ab 3d 59 a6 79 3e 67 06 fe 3d
       -0.038795907 0.083960816 0.24379863 0.12403565
000070 2f d6 a5 be e5 ad 1a bd 28 52 24 3e 15 4b a6 3e
       -0.32389972 -0.037763495 0.16046965 0.32479158
000080 21 71 06 3e f8 cc 9c be a5 ed a2 be c2 61 50 3d
       0.13129093 -0.3062513 -0.31821933 0.05087448
000090 19 72 a9 3e 69 19 19 bd 8e 99 f0 bc 25 67 51 be
       0.33094862 -0.03737775 -0.029370096 -0.20449503
0000a0 9d 5b a5 3e 7d 2c 2c 3d 29 20 2a 3e e3 a0 4c bd
       0.32296458 0.042034615 0.1661383 -0.04995812
0000b0 4c 12 18 be 4b 82 56 3e 47 99 12 3c cc 8b fb 3d
       -0.1485073 0.2094814 0.008947677 0.122825235
0000c0 68 73 fc bc 34 d5 aa ba eb 6c 8a be f8 76 09 be
       -0.030816749 -0.001303351 -0.27036223 -0.13424289
0000d0 4d 5e 25 3e 55 6f 90 3d e6 8d 93 3e d3 74 de 3d
       0.16149254 0.07052485 0.28819197 0.10862126
0000e0 ff cb ed 3b 18 73 0e 3c bb 49 95 3e 51 3e 16 3e
       0.0072569842 0.008694433 0.29157814 0.1467221
0000f0 60 fd ec bd 2b b3 5b 3e 4d 50 93 3e 27 cc ac 3e
       -0.11571765 0.21455066 0.28772202 0.33749506
000100 1c 44 8d bd 43 53 b6 3c bf 9c c8 3d 3d bf 26 3e
       -0.068977565 0.0222565 0.09795522 0.16283889
000110 88 57 8c bd ca 57 14 be 04 74 17 3e b8 d0 a1 3c
       -0.06852633 -0.14486614 0.1479035 0.019752845
000120 b9 cd 2c 3e 91 d4 07 3d bd 6b 3c 3d be 43 a9 3d
       0.16875352 0.033161703 0.046001185 0.08264874
000130 a6 bf 04 3e 6a 7b 1a 3e 85 4e 19 be d5 16 04 3e
       0.12963733 0.15086141 -0.14971359 0.12899335
000140 58 e6 16 be 31 c2 0f be 78 95 84 3c b9 25 f7 bc
       -0.14736307 -0.14038922 0.016184554 -0.030169355
000150 71 07 fb 3d da ac 06 be f5 47 43 be 6f 07 ec 3d
       0.12257279 -0.13151875 -0.19070418 0.11524855
000160 9a af 68 bd d3 15 c4 3d e7 72 5c 3d 16 61 2e be
       -0.05680809 0.09574475 0.053820517 -0.17029223
000170 52 17 9c bb b4 41 6c 3b 7c 05 28 be 77 b7 c8 bd
       -0.004763522 0.0036049904 -0.16408342 -0.09800618
000180 13 e2 54 3d b4 13 3e bc f5 05 08 be 9e e9 c4 bd
       0.051973414 -0.011601377 -0.13283522 -0.096148714
000190 22 42 93 3e 33 54 cb 3d dd 22 73 3e 87 2c 11 3e
       0.28761393 0.09928169 0.23743768 0.14177142
0001a0 05 01 0e be 92 32 44 bc 52 eb ed 3e 1b d4 85 3e
       -0.13867576 -0.0119749475 0.46468598 0.26138386
0001b0 5f d5 86 3e 91 53 d5 3d 29 be 8f 3e e8 78 fd 3e
       0.26334664 0.1041633 0.28074768 0.49506307
0001c0 88 4c ee 3e fc 23 9c 3b 6a ae 02 3e 69 c0 9a 3e
       0.46542764 0.004765032 0.12761846 0.30224922
0001d0 25 c9 bb 3e 40 f6 88 3e f2 d8 8e bd 6f dd 73 bd
       0.366769 0.26750374 -0.06974973 -0.059537347
0001e0 3b e7 d3 bd b4 a8 aa 3d 73 be 71 3e 0d b5 c0 bd
       -0.10346838 0.08332959 0.23607807 -0.09409533
0001f0 80 7e 41 3e ad 2c 07 be 67 74 66 be ae 61 0d bd
       0.18895912 -0.13200636 -0.22505341 -0.034516983
000200 3c 35 79 3e 8c 22 ad 3e e5 1a a0 bd bf a8 c7 3d
       0.24336714 0.3381542 -0.0781763 0.09748983
000210 c6 e9 97 3e 6d c1 ad 3e 68 b9 92 3e 5c fa 60 3e
       0.29670542 0.33936635 0.2865708 0.21970505
000220 a2 74 4b 3e 53 5b 21 3e e8 c3 86 3c ba eb a5 bd
       0.1986871 0.15757494 0.016450837 -0.08101602
000230 bf 34 8d bd 1e 15 c5 bb a5 53 88 bd 4a 32 30 3e
       -0.06894826 -0.0060144803 -0.06656579 0.17206684
000240 c6 dc fa 3d 75 ab 92 bd fa d2 63 3d 2a 67 bd 3d
       0.122491404 -0.07161609 0.055621125 0.092481926
000250 29 71 3f 3e ea 89 32 3e 4a 20 a9 bd 54 17 33 3e
       0.18695511 0.17435423 -0.08258112 0.17489368
000260 98 d6 bd bc c4 ca a6 3c 6e e1 2a be f1 ea 25 be
       -0.023173615 0.020360358 -0.16687557 -0.16202904
000270 7a 48 16 be 69 00 9f bd 5d 5c 32 3e 20 d6 56 bd
       -0.14676085 -0.0776375 0.17418046 -0.0524503
000280 6b 17 38 be b4 aa 85 3d 0c ef c6 3d 20 04 2d 3e
       -0.17977683 0.065267 0.09713563 0.16896105
000290 f9 7d bb bd 41 33 35 3d dc 2a 43 bd 2c 39 97 3c
       -0.09154887 0.044238333 -0.047648296 0.018459879
0002a0 6e fa c6 bd 07 1a 46 bd 53 fd c5 bc 66 a0 0e 3e
       -0.097157344 -0.048364665 -0.024168646 0.13928375
0002b0 9e 8d e1 3d 50 4b f6 3d fa de 84 3e ef 48 36 3e
       0.110133395 0.120260835 0.25951368 0.1780126
0002c0 69 6f 01 3e a3 45 88 3a 74 6c 13 be f2 0d 0d 3e
       0.12640156 0.001039673 -0.1439684 0.13774851
0002d0 27 6a 89 bd 43 c3 0b bd 01 6f 3c be 2a 42 9c bd
       -0.067097 -0.034121763 -0.1840172 -0.07629807
0002e0 d6 43 30 be c9 03 3a 3e 33 be 2d be 9f 5a 26 be
       -0.17213377 0.18165506 -0.16967086 -0.16245507
0002f0 2b ea 23 bd 4b 30 0a be 46 49 e2 3d 38 bb c0 bc
       -0.04001824 -0.13494985 0.11049132 -0.023526773
000300 0f 8f 1e bd 5c da 47 3d 1f 46 3e 3e bf d4 9f bd
       -0.03871065 0.048792228 0.18581437 -0.0780425
000310 a4 77 44 3e 0f b8 78 3e 90 4f 92 3e 1d d9 94 bd
       0.19186264 0.24288963 0.28576326 -0.072679736
000320 01 28 32 3d 22 23 18 be 54 ce 43 3e 98 02 22 bc
       0.043495182 -0.14857152 0.19121677 -0.009888314
000330 79 67 50 3e c7 a8 94 3c 83 1f 58 b8 45 45 43 3d
       0.20351972 0.018146886 -5.152776e-05 0.047673482
000340 53 04 11 3e 49 ec 60 3e 76 f5 4a 3d 80 cb a3 3d
       0.14161806 0.21965136 0.049550496 0.07997799
000350 5c c0 fe bd 2c 8b 80 3e 37 72 9c 3e f3 df 1a 3e
       -0.124390334 0.2510618 0.3055589 0.15124492
000360 81 ec fd 3d 37 6c 0d be b5 61 c6 bc 28 f6 88 3e
       0.12398625 -0.13810812 -0.024216512 0.26750302
000370 bf d1 6c be 6d 61 cb 3d 9c 3f 49 be ad e2 10 be
       -0.23126887 0.09930692 -0.19653171 -0.1414897
000380 f6 d4 0e 3e 65 11 e1 bd 42 b4 0b 3c 0b ac 7a 3e
       0.13948426 -0.10989646 0.0085268635 0.24479692
000390 50 90 91 3e e5 59 9c 3e 08 42 c3 bc bb fa 08 be
       0.28430414 0.30537334 -0.023835197 -0.13376896
0003a0 0a 08 8b 3e ed ee 87 3d a8 09 be 3c 92 0d 06 3d
       0.2715457 0.06637368 0.023197964 0.032727785
0003b0 8b 15 1f be 04 60 1c 3e c4 f0 37 3e 1a ed d1 bd
       -0.15535562 0.15271002 0.17962939 -0.10250302
0003c0 d2 b5 45 be 1f 1c 35 bd 29 89 a1 3d 59 aa 1a 3c
       -0.1930764 -0.04421627 0.07887489 0.009440028
0003d0 ef 7b bb bd e4 2e e0 bc 42 be 5e be e7 0d 23 be
       -0.09154498 -0.02736611 -0.21752265 -0.15923272
0003e0 cc a5 10 be a7 4a 13 3e
       -0.14125746 0.14383946

2 f4 [10]
000000 64 48 45 3e 7f 83 4f bd f5 9e 85 3d 21 53 e9 3d
       0.19265896 -0.050662514 0.06524459 0.11392809
000010 e7 f0 15 3e 4f 7a 94 bc b7 6e f9 3d 57 71 00 3e
       0.14642678 -0.018124728 0.1217932 0.12543236
000020 d4 e4 92 3c c9 f6 c0 3c
       0.01793138 0.023555176

3 f4 [20, 10, 5, 5]
000000 86 92 35 3d 1f 0e 16 3d f7 52 63 bd 7a d0 59 3d
       0.04432919 0.03663456 -0.055499043 0.053177334
000010 33 77 c8 3c 46 14 57 bd 65 e4 96 3c 5a 3a 94 bd
       0.024470901 -0.05250957 0.018419454 -0.07237692
000020 71 71 6a 3d 3a 10 bf bc 53 ba 26 3c a2 69 4b 3b
       0.057237092 -0.023323167 0.010176259 0.0031038304
000030 fb ea 20 ba cc 48 62 3d 4e 6d 9b bc 9a a7 40 bd
       -0.00061385304 0.055245206 -0.018973019 -0.047034837
000040 1b ee 89 bd 8a b7 b6 b9 13 31 87 bc 8a 6c 3d 3b
       -0.06734868 -0.00034850492 -0.016502893 0.0028903806
000050 3c 5b 8c bc 2c e4 07 3d 18 c6 9b 3d b3 8c 2c 3d
       -0.017133348 0.033176586 0.07606143 0.04212637
000060 7b f6 2b bc cb bd 2d bd 18 3b ac bd c4 c8 a5 3c
       -0.010495777 -0.04241733 -0.08409709 0.020237334
000070 7c c2 79 bc 7f 9c 1f 3d bc 81 56 bc 46 dc a5 bd
       -0.015244123 0.038967606 -0.0130924545 -0.080986544
000080 2b 0b 5b 3c ab f6 28 3d ee fd b7 3c ee 09 5d bd
       0.013369362 0.041250866 0.02245995 -0.053964548
000090 6e 7d 4c bd 15 6a 28 3d 4f 44 25 bb ec fc 20 bd
       -0.049924307 0.041116793 -0.0025217717 -0.039303705
0000a0 45 52 62 bc 2d 6f 62 3c 28 c1 ac 3d f9 11 61 bc
       -0.01381356 0.013820452 0.08435279 -0.013737195
0000b0 89 ad 0c bd 98 fe 5d bc 13 9a 22 bc dd 7b b5 3d
       -0.034345184 -0.013549469 -0.0099244295 0.08861516
0000c0 d6 62 85 bc ed e6 ea 3c 14 fe a4 bc 09 87 5c bd
       -0.01628248 0.028674567 -0.020140685 -0.053839717
0000d0 34 73 91 bd 3e b9 64 3b bd 98 88 3d 5e b2 c9 bd
       -0.071020514 0.0034900452 0.066697575 -0.09848474
0000e0 e6 a9 01 bd e6 d4 be 3d a2 0b c7 3d e7 51 dc 3c
       -0.03165617 0.09317951 0.09719016 0.026894523
0000f0 85 60 b1 bc 35 39 46 3d 14 43 8b 3d d3 c8 40 bc
       -0.02165247 0.0483944 0.067999035 -0.01176663
000100 2b b0 8d bb 2d 20 2e bc c6 4f 30 3c 13 1b 3f 3c
       -0.0043239794 -0.0106277885 0.010761207 0.01166417
000110 55 f0 ac bd dd 39 3f bd 83 66 f5 3c c8 83 18 3c
       -0.08444277 -0.046686042 0.029956108 0.009308763
000120 d4 a6 26 3c b7 a6 76 bd 5a c9 5a bc 5c 91 5e bc
       0.010171611 -0.060217585 -0.01335367 -0.013584461
000130 e6 8c 2a bd bf d9 12 bd 3d 85 17 3c 3d cb 32 bb
       -0.041638277 -0.03585219 0.009248075 -0.0027281784
000140 f4 21 2c bd 13 86 5a bd 2a f2 3c bd 84 9d 59 3d
       -0.042024568 -0.05335052 -0.046129383 0.053128734
000150 76 31 87 bc 5f 07 c8 bc b8 1f a3 bc 8d 9e 13 bd
       -0.016503077 -0.024417577 -0.019912586 -0.036039878
000160 b8 15 8a bd 31 85 18 bd ac 4b 1a 3d 5e 06 6e 3c
       -0.06742424 -0.037236396 0.037669823 0.014527885
000170 a0 f7 d4 bc cd a7 d0 bc 14 6b 2b 3d 15 02 3f 3d
       -0.025996983 -0.025470639 0.041850165 0.046632845
000180 14 a4 74 3d bb ed d1 3c 5a f8 f8 3c 1b b4 a6 bb
       0.05972679 0.025626054 0.03039186 -0.005087388
000190 88 1d 74 bd 95 1f fb bd b8 7d 90 bc 8b e8 85 3c
       -0.059598476 -0.12261883 -0.017638072 0.016346237
0001a0 00 78 a6 3d 29 b6 5e bd 8f 8a 13 be 3a eb ae bc
       0.08128357 -0.05437294 -0.14408325 -0.0213524
0001b0 16 4e b9 3d c4 fd d7 3c ba 6e c9 bd 66 39 b9 3c
       0.09048097 0.026366122 -0.098355725 0.022610378
0001c0 93 69 7d 3d cf 38 80 3b 77 90 8e bc bb 28 3b bc
       0.06186826 0.003913022 -0.01740287 -0.011423285
0001d0 a6 bc 88 ba e0 4d c3 3d 9f 1d 96 bc c1 3e 6f bd
       -0.0010432198 0.09536338 -0.018324671 -0.058409456
0001e0 93 3b a3 bc 16 d0 76 bd 5e 54 24 3d 8d 85 0b bd
       -0.019925868 -0.06025704 0.04011952 -0.03406291
0001f0 c9 71 70 bd ac 65 80 3c fd aa 89 ba a9 ae 7f 3c
       -0.058702264 0.01567348 -0.0010503229 0.015605607
000200 ac eb e2 3b 91 eb 32 bc b9 8b dc bc 76 4f 2b 3d
       0.006925067 -0.010920421 -0.026922094 0.041823827
000210 4e 35 26 3d f8 23 b8 3c a2 87 79 3d f9 76 d2 bb
       0.04057818 0.022478089 0.060920365 -0.006422874
000220 e7 ab b3 3d 97 69 a3 3d da 9d 88 3d f7 4c 47 bc
       0.08773022 0.07979124 0.06670733 -0.012164346
000230 bb 9b 85 bc d4 6c c1 3d b2 57 19 3b db f0 aa bd
       -0.01630961 0.094445854 0.0023398218 -0.08346721
000240 34 f6 64 bd e0 93 64 bd e3 31 a3 bc 2a 6d 92 bd
       -0.05589886 -0.055805087 -0.019921249 -0.07149728
000250 2d 9a bc 3c 06 80 16 bd 63 cf 98 bc f3 c9 fd 3c
       0.023022735 -0.036743186 -0.018653577 0.030980086
000260 37 e2 1b 3d 5b ca c1 bc 78 43 db 3c 6c 5a 0b 3d
       0.038057532 -0.02365606 0.02676557 0.03402178
000270 01 4c 50 bd 5e 07 83 3d d3 12 03 bd a9 7d 06 bd
       -0.050853733 0.063978896 -0.032000374 -0.032834683
000280 4d 30 60 bd b8 30 67 3d 99 91 6c 3c 06 ac 32 3d
       -0.054733563 0.056442946 0.01443901 0.043621086
000290 4a b6 93 ba 98 eb dd 3c a3 83 1b bc e6 9a 1d bd
       -0.0011269536 0.027089879 -0.009491834 -0.0384778
0002a0 00 50 84 3c 3c b7 19 ba 0d 5d 2a bc 86 36 a5 bc
       0.016151428 -0.0005863791 -0.010398162 -0.0201676
0002b0 a1 cc 58 3c 61 df aa 3c 84 6c 84 3c e3 af 62 bd
       0.013232381 0.020858468 0.016165026 -0.05534352
0002c0 f7 68 0d 3d 00 de 34 3c 7e df 0f 3d a4 99 45 3d
       0.03452393 0.011039257 0.035125248 0.048242226
0002d0 61 92 4e bd 61 f9 aa 3d 70 0e 8f bd ae a6 95 3c
       -0.050432567 0.083483465 -0.069851756 0.018267956
0002e0 a2 44 d6 3b 59 cb 6b 3c b9 da 38 bd a2 2d 37 3c
       0.0065389434 0.014391744 -0.045130465 0.011180313
0002f0 a2 23 1a bc e8 de 13 bd 75 25 f9 3b 4e b4 82 3c
       -0.00940791 -0.03610125 0.007603342 0.015955117
000300 c7 3f bd 3d 67 5e 38 3d 01 e9 b2 3d 4d 15 d5 3c
       0.0924068 0.045011904 0.08735848 0.026011134
000310 38 09 16 bd b0 9b c2 bc b5 7e 4c 3d 71 fd 0d bd
       -0.036629885 -0.023755878 0.049925525 -0.03466553
000320 3e 68 50 bb 49 56 80 bd 23 58 12 3d 05 9e 83 3c
       -0.0031800414 -0.062664576 0.035728585 0.01606656
000330 bd b9 88 bc 1d 9e 3d bc c6 13 60 bd ba d9 b8 bc
       -0.01669013 -0.011573342 -0.054706357 -0.022564758
000340 df 73 b6 3c 1c ca 14 bd 96 bc 83 bc dc bf 4e bc
       0.022272049 -0.03632556 -0.016081136 -0.012618985
000350 68 e5 65 3d 8d 76 52 3d d8 fe 08 3d 93 3b 78 3d
       0.056126982 0.05138259 0.033446163 0.06060369
000360 12 58 50 bd 2b 22 90 3b bf 92 c3 ba c3 58 9c bd
       -0.05086524 0.0043986044 -0.0014921053 -0.076341175
000370 88 53 09 3d 75 7f dd bc 4a 0e f6 3a 6b f5 8d 3c
       0.033526927 -0.027038315 0.0018772569 0.017328938
000380 6e 88 1e 3d f8 81 b4 bc 14 13 67 bd 27 2a 34 3d
       0.03870433 -0.02203463 -0.05641468 0.043985512
000390 1d 94 88 3c 55 bf 67 3c 5a 79 d2 3b 1b 3a 71 bd
       0.016672188 0.014144738 0.0064231576 -0.058893304
0003a0 94 1b fb 3c 51 de 3f bd 0c 37 f3 3b 85 46 b1 3b
       0.030652799 -0.046842877 0.0074223336 0.005410018
0003b0 03 68 2b 3d df 48 cf bb 79 5f 1b bd 45 98 a0 3c
       0.04184724 -0.0063258256 -0.037932847 0.019603858
0003c0 1e 18 67 bd 2d fa 83 bc a3 df 45 bd 38 0f 21 bd
       -0.056419484 -0.016110504 -0.04830898 -0.039321154
0003d0 f8 1b cf bc 08 1d 36 bd b2 e8 19 bc 8c 17 52 bd
       -0.025281891 -0.04446128 -0.009393858 -0.051291987
0003e0 c4 2b 36 3d d0 94 b7 bc 66 aa 2f bd 3f 4d b2 3c
       0.044475332 -0.022409827 -0.042887114 0.02176535
0003f0 10 a5 40 bd fd b2 15 3d bf 5b f9 3c 0d 57 8b bd
       -0.047032416 0.03654765 0.030439256 -0.06803713

4 f4 [20]
000000 91 c0 b1 3c 5e f7 6d bc 91 2d 10 3d f3 bc 87 bc
       0.021698268 -0.014524309 0.035199706 -0.01656959
000010 9a 47 3a bc 60 4b ff bc db 2b 2a bd ae 8a 51 bc
       -0.01136961 -0.031163871 -0.04154573 -0.0127894115
000020 30 ff 4e bd 9c 8c ca bc ff 3c a2 3b 20 d1 2d bd
       -0.050536335 -0.02472525 0.004951119 -0.042435765
000030 ca ff 4f bd c3 f4 88 3d d8 fd 15 bd 4e a8 76 bd
       -0.05078105 0.066873096 -0.036619037 -0.0602191
000040 84 72 17 bc fb 45 62 bd cf 47 77 bd 3f d5 05 3c
       -0.009243611 -0.05524252 -0.060371216 0.008168518

5 f4 [50, 320]
000000 54 d9 8a bd 57 65 e6 bc 05 5f 0b 3c a8 ce da bb
       -0.06779733 -0.028124494 0.008506541 -0.0066774674
000010 79 05 4a 3d 49 38 b9 bc 2b bb a5 3c c7 e3 05 3c
       0.049321625 -0.022609847 0.02023085 0.008171982
000020 d0 f9 a4 bc ec d2 a1 3c f1 40 6f 3d 7d 38 14 3d
       -0.020138651 0.019753896 0.058411542 0.036186684
000030 b5 2e 8c bb 57 51 2f bd f9 fd f9 3c 2a 27 51 3c
       -0.004278029 -0.04280218 0.030516611 0.012765685
000040 9f 16 30 bd 75 b9 5d 3c fa eb da bc d1 4e 86 3c
       -0.042990323 0.013532986 -0.02672385 0.016395004
000050 42 3a b3 3c 1c b4 3f 3a 84 03 38 3d 84 79 94 bb
       0.021878365 0.000731291 0.044925228 -0.0045310874
000060 d7 17 fd 3c fd a3 84 bd 06 34 4e 3d 58 ca f4 3c
       0.030895157 -0.06476591 0.050342582 0.029881641
000070 cf c6 24 bc 41 63 59 bd e7 d2 93 3c 9f 81 11 3c
       -0.010057165 -0.05307317 0.018044902 0.008881002
000080 c9 ff dc bc b1 a4 2b bc 43 21 a6 bd 04 09 64 bd
       -0.026977437 -0.010476277 -0.08111813 -0.05567266
000090 94 46 87 3c d0 b5 fe 3c 5c 61 46 3d f9 08 52 3d
       0.016513146 0.031092554 0.048432693 0.05127809
0000a0 19 a7 14 3d 30 14 e8 bb 38 d3 14 bc 66 bd 63 bc
       0.03629217 -0.0070824847 -0.009083562 -0.013900137
0000b0 34 a0 74 bc fd 8e e5 bc 3c a6 87 3d 39 8c 1f bd
       -0.0149307735 -0.028022284 0.066235036 -0.038952086
0000c0 85 b2 c5 bc 71 04 50 3d 7a e3 14 3d 0c 9f a3 3c
       -0.024132976 0.050785486 0.03634975 0.0199733
0000d0 29 37 ec bc 64 4a 2c 3c aa 89 06 bd 69 c0 3a 3d
       -0.028834896 0.010515783 -0.03284613 0.045593653
0000e0 ac 2b 18 bd 63 e1 4b bd 57 c0 9e bd be b4 3b bd
       -0.037151024 -0.049775492 -0.0775153 -0.045826666
0000f0 e9 df 39 bd 3f bd f0 bc 77 69 c2 3c af 9f 5c bd
       -0.045379553 -0.029387115 0.02373193 -0.053863224
000100 af 73 e5 3c 6a 39 12 3d 03 1c dc 3c ba af c9 ba
       0.028009264 0.035699286 0.026868826 -0.0015387454
000110 31 40 08 bd 8f 35 81 bc 63 e9 1e bd 94 43 56 bc
       -0.033264343 -0.015772609 -0.038796794 -0.013077635
000120 d2 de d2 bc c5 34 f8 bc 93 ca 9a 3b 47 d5 9e 3c
       -0.025741015 -0.0302986 0.0047238558 0.019388808
000130 97 e9 6e bc e5 f2 0d 3d c9 2b 57 3b 32 75 d5 bc
       -0.014582059 0.03465547 0.0032832494 -0.02605686
000140 a5 aa e6 bc 2c 03 92 3d 24 f2 9d 3c 20 08 77 bd
       -0.028157542 0.07129511 0.0192805 -0.060310483
000150 52 72 c7 bc ee 4f 06 3c 42 f9 43 bd ca 4b b0 3b
       -0.024346504 0.008197768 -0.047845133 0.0053801285
000160 4b 02 ac bc 22 fb 01 bc f8 09 80 3c 16 d1 b2 bc
       -0.020997187 -0.00793341 0.015629753 -0.021828216
000170 e2 76 e3 bc 71 cf 69 3d 5e 44 86 3d d8 81 02 bd
       -0.027766649 0.057082597 0.06556009 -0.03186211
000180 93 4e c0 3c 73 95 36 3d 64 64 98 3c 72 4b c9 ba
       0.023474967 0.04457612 0.018602557 -0.0015357567
000190 80 12 85 3d ef d7 c2 bc 2a 76 f2 bc ce c4 33 3d
       0.06497669 -0.023784606 -0.02959736 0.04388886
0001a0 91 f6 8d 3b e5 ed 1e bd 10 99 3d 3d bc 9e 31 3d
       0.0043323715 -0.038801093 0.04628855 0.04336427
0001b0 ca 2a 02 3d 56 66 1f bc 24 22 c8 bb e4 35 0c 3d
       0.031779088 -0.009728989 -0.0061075855 0.03423108
0001c0 a1 81 9b 3c 1e c2 22 bd 45 e0 87 3d d4 46 b9 bb
       0.01898271 -0.039735906 0.06634573 -0.0056541953
0001d0 6e fd f8 bb 96 94 1c bc 75 1b 76 3b c6 d8 01 3d
       -0.0075985705 -0.00955691 0.0037552987 0.031700872
0001e0 0e 0e 1d 3d 1a 99 05 3d 3e c4 40 bd e6 9a 26 3d
       0.03834348 0.032616712 -0.04706215 0.040675066
0001f0 e3 c1 25 bc 67 0b 37 bd ff 46 97 bc 76 b1 80 3b
       -0.010117027 -0.04468861 -0.01846647 0.003927405
000200 1f fd 30 bd cc 3a 35 bc 6d 68 b8 3c 37 76 f7 bc
       -0.043210145 -0.011061382 0.022510732 -0.030207736
000210 cc 38 ac 3c 38 0e 0b 3d 36 35 09 3d c3 a1 01 3d
       0.021023177 0.033949107 0.03349801 0.03164841
000220 0d 31 51 3d 0c cf 04 bd 06 2e 72 bc 25 75 59 3d
       0.05107217 -0.032424018 -0.014781481 0.053090233
000230 2f 79 21 bd 8f 85 54 bc 22 d1 4a bd 9b ee 01 bd
       -0.03942221 -0.012971296 -0.04951585 -0.031721693
000240 24 23 48 bd e8 ee 4a bd 7d b1 f5 bc eb 1a c2 3c
       -0.048861638 -0.049544245 -0.02999186 0.023694476
000250 3f 27 c9 3c 0d f4 b4 bc b3 a2 f7 3b ab c0 d1 bc
       0.024554847 -0.022089029 0.007557237 -0.025604567
000260 b1 74 6c 3c ab cf ee bc 43 28 75 39 d0 7f 94 3d
       0.014432118 -0.029151758 0.0002338002 0.07250941
000270 2f 8a cd 3c 04 c2 10 3d 41 9c 6e 3d 3b 6b d5 3c
       0.025090305 0.035341278 0.058254484 0.026052108
000280 19 93 7c bc a9 a3 6f 3b d2 02 c7 bc 5f a5 5d 3c
       -0.01541593 0.0036566055 -0.024293337 0.013528197
000290 05 99 ad bc e7 c7 77 3c 5e f8 8e 3d b7 5a 17 bc
       -0.02119113 0.015123344 0.06980966 -0.009237937
0002a0 c9 5f 83 bd cd 25 61 3d 06 a2 80 bc 70 fd 22 3d
       -0.06414754 0.05496769 -0.015702259 0.039792478
0002b0 ea 7c fd 3c f9 37 aa 3c 8e 93 c4 3c 1c 50 bd bc
       0.030943353 0.020778643 0.02399614 -0.023109488
0002c0 ab ad 03 3c e0 81 b8 bd 33 e3 14 bd 1b 33 75 bd
       0.008037011 -0.09009147 -0.036349487 -0.05986319
0002d0 4a e8 d0 3c 65 75 17 3d 9c 87 96 3c de 9f 2f bd
       0.025501389 0.03697719 0.01837521 -0.04287707
0002e0 5d a1 fa 3c e0 cc 57 bd 56 4f cf 3c d1 86 ff 3c
       0.030594522 -0.05268562 0.025306385 0.031192215
0002f0 9d 38 0c 3d 5a c9 0c 3d df 2b b5 3c ac da a0 3d
       0.034233678 0.03437171 0.022115646 0.07854208
000300 16 83 07 bd b7 32 47 3c 98 aa c9 bc 05 3a 01 3b
       -0.033083998 0.012158087 -0.024617478 0.001971842
000310 6c fe bc bb 8a 6a 56 3d 7a ce df 3c 7f ba 7f 3c
       -0.005767634 0.052347697 0.027320135 0.015608429
000320 31 7b 70 bc 88 29 74 bd c4 fc b2 bc 53 dc 43 bc
       -0.014677809 -0.05960992 -0.021849044 -0.011954385
000330 d4 ad 8d 3c cb 74 0f 3c 57 ba ac 3c 90 d2 ef bc
       0.017294802 0.008755873 0.021084948 -0.029275209
000340 73 6c 2d bd be 8c 50 3d 93 d3 37 3d 9f 3d b1 3c
       -0.042339753 0.050915472 0.044879507 0.021635829
000350 ce df f4 3c 97 b0 84 bd 6e 4c de bb 0d 2f 2d 3b
       0.029891875 -0.06478994 -0.0067840135 0.002642575
000360 39 04 91 bd f3 87 14 3c dd d8 05 3c 02 74 eb bc
       -0.070808835 0.009065616 0.00816938 -0.02874184
000370 75 4b ab bd b6 61 22 3c ae d2 6b 3c 0b 7e ed bc
       -0.08364002 0.009910991 0.014393492 -0.028990766
000380 92 de 81 3c 4e a5 1b 3c 31 90 91 bd 38 94 82 bd
       0.0158532 0.009499861 -0.071075805 -0.06375927
000390 4b 41 76 3a ae f3 07 bd f4 57 3c bd 01 ea bf bb
       0.00093938847 -0.033191375 -0.045982316 -0.005856753
0003a0 d0 10 eb bc 2d b7 16 3d 05 86 1a bc a2 05 af bc
       -0.02869454 0.036795784 -0.009431367 -0.02136499
0003b0 0e ef 8e 3c 87 6e 4b 3c ca 7d b5 bc 8b bb 16 3d
       0.017447975 0.0124164885 -0.022154707 0.03679995
0003c0 d4 90 0b 3d de b5 0b 3d 47 eb 95 bd de d4 95 bd
       0.034073666 0.03410899 -0.07320266 -0.07315992
0003d0 a5 03 84 bd d5 d9 84 3c 80 44 3d 3c b7 a4 56 3d
       -0.06446008 0.016217152 0.011551976 0.052403178
0003e0 8f 4a 4d 3b c7 fa 24 3c 8c 11 71 3d 6a 62 e8 ba
       0.0031324958 0.010069556 0.058854625 -0.0017729525
0003f0 aa 6b 45 3c 74 41 2a bc 47 c0 e1 b9 d7 5d 3c bd
       0.012049595 -0.010391582 -0.00043058602 -0.04598793

6 f4 [50]
000000 05 6a 30 3d cd 4b 09 3d 83 9b f9 bb 5b 92 ab bb
       0.043069858 0.033519555 -0.0076174154 -0.005235953
000010 16 3a 96 3c 64 e4 2a bc 07 79 77 ba 05 95 24 bd
       0.018338244 -0.010430429 -0.0009440337 -0.04018118
000020 c7 aa 72 3c e9 58 dd 3b bc 55 c9 3c b9 7d 4f 3d
       0.014811224 0.0067549837 0.024577014 0.050657008
000030 11 09 b2 bc a8 2b 66 bb 0c 37 28 bc dd fb 30 bd
       -0.021732839 -0.0035121236 -0.01026703 -0.043208946
000040 88 56 5f 3d 53 33 a0 3c ee c4 7f 3d 6f 46 0c bd
       0.054525882 0.019555723 0.062443666 -0.03424686
000050 98 8d 29 3c d1 87 8c 3c 2a 37 0a bd e1 0f 1b 3d
       0.0103487 0.017154606 -0.033744015 0.03785694
000060 35 a6 11 3d 2b 17 4e bb 7c 79 8d 3d 07 87 c7 bc
       0.035558898 -0.0031446915 0.06907937 -0.024356378
000070 30 28 2b bd bf bd 06 bd d9 27 13 bd 9c 95 37 3d
       -0.041786373 -0.0328958 -0.035926674 0.044820413
000080 12 e0 be 3b 74 92 16 bd 39 34 3c bd 2a ae 90 3d
       0.005825051 -0.036760762 -0.04594824 0.07064469
000090 e5 09 f2 3b 17 e6 63 bd ee b3 f8 3c 58 9c fd bc
       0.0073864334 -0.055639353 0.030359235 -0.03095834
0000a0 24 b5 39 3c 2d ee 86 3d da 5b 0a 3d f2 f0 1b bd
       0.011334691 0.06588397 0.033779003 -0.03807158
0000b0 5b b9 b7 bc 75 ef 45 3c cb a9 2b bd bd d9 4c bd
       -0.022427252 0.012081017 -0.041909974 -0.05001234
0000c0 21 c3 4f 3d db ad 16 3d
       0.0507232 0.036786895

7 f4 [10, 50]
000000 fa 0a ef 3d b2 e5 a3 bd 32 60 17 3e dc e2 b6 3c
       0.116720155 -0.08002795 0.1478279 0.022324972
000010 ea 14 b6 bd 21 de 47 bd 78 3d 2d be 2a d4 eb bd
       -0.08890708 -0.048795823 -0.1691798 -0.115150765
000020 2f ca 70 bd be e0 ad bd c7 8f 4e be c1 b5 eb bd
       -0.058786567 -0.08490132 -0.20172034 -0.11509276
000030 e3 49 33 bd 4e e5 15 3e f7 13 55 3e e3 29 1b 3e
       -0.043771636 0.14638254 0.20808397 0.15152697
000040 1a c5 ae 3d c5 91 43 3e 6c fb 68 3d b9 f5 aa bb
       0.08533688 0.19098575 0.0568804 -0.0052172807
000050 bf ee 1b bd d6 84 fd bd 85 9e 89 bd d9 2c 3a be
       -0.038069483 -0.12378852 -0.06719688 -0.1818117
000060 a5 fb be bd 84 38 51 be 98 0f 3f be 30 dd 62 be
       -0.09325341 -0.20431715 -0.18658292 -0.22154689
000070 cf 0e 9a 3d 50 ea 44 3e 6c cf 2a be ea 0a f2 bc
       0.07522356 0.19230008 -0.16680688 -0.02954622
000080 b6 ce 4c 3e f6 28 f7 3d d0 0e da bd 09 d9 26 3e
       0.20000729 0.120683596 -0.106473565 0.1629373
000090 58 31 11 3e 50 dd 32 3d cc ef 45 bd 99 1a 0b be
       0.1417898 0.04366809 -0.04832439 -0.13584365
0000a0 03 08 f7 bd 81 1e 5f be 14 45 92 3d 5d 73 6e bd
       -0.12062075 -0.2178898 0.07142082 -0.058215488
0000b0 61 aa 41 bc 82 f1 25 3e 87 93 80 bd 6b 34 1d bd
       -0.011820407 0.16205409 -0.062781386 -0.038380068
0000c0 fd 4f 07 3e b4 92 5b 3c 19 01 26 3c d7 9d 14 3e
       0.13214107 0.013401676 0.010132098 0.14513336
0000d0 02 e3 13 be d1 1c e9 3d e0 06 e5 3d a0 33 08 3e
       -0.14442065 0.113824494 0.11182952 0.13300943
0000e0 6d 42 59 be 53 8d 61 3d 22 ca fc bc de 53 f3 bd
       -0.21216746 0.055066418 -0.030858103 -0.11881231
0000f0 53 01 06 3e 5e 82 48 3e df 8c ab bd a8 e6 1b be
       0.13086443 0.19580981 -0.083764784 -0.15224707
000100 2d c1 08 bd 8e 72 70 be 96 b8 aa 3d 6c 3d 0a bd
       -0.03338735 -0.23481199 0.08335988 -0.033749983
000110 6a a8 35 be d2 ef 76 3d 14 61 02 be 10 ce 1f 3d
       -0.17740026 0.060287304 -0.12732345 0.039014876
000120 2d 61 85 3d cf c7 22 3e d9 94 15 3e 80 9f 83 be
       0.065126754 0.15896533 0.14607562 -0.25707626
000130 f9 2e 77 be 91 e8 1e 3e 73 04 ea 3d ba fb 74 3d
       -0.24139012 0.15518405 0.1142663 0.059810378
000140 99 12 45 3e 59 b3 88 bd 1a af 4f be d0 aa 15 be
       0.19245376 -0.06674833 -0.2028164 -0.14615941
000150 33 70 26 3e 0d ab a3 3d 06 bb 05 be 06 5d 37 bd
       0.16253738 0.0799161 -0.13059625 -0.04476645
000160 47 c5 02 3e ec 7e c6 3d 68 37 99 bd d0 a4 ee 3d
       0.12770568 0.09692177 -0.07481271 0.11652529
000170 27 05 55 bd 4f 82 4e be c4 80 e9 3d 60 d5 08 be
       -0.052006867 -0.20166896 0.11401513 -0.13362646
000180 80 15 1e be 00 5e ec 3d cb d1 56 be 4c fd d3 3d
       -0.15437889 0.115413666 -0.20978467 0.10351047
000190 44 b8 27 bd 72 d0 81 bc d3 5f 9c bd a0 96 96 bd
       -0.040947214 -0.015846465 -0.076354645 -0.07352948
0001a0 bc 87 6f bd 2c b9 24 3e e2 c9 d3 3d c3 c2 00 bd
       -0.058479056 0.16086262 0.103412405 -0.03143574
0001b0 e9 1b 55 3e 65 13 03 3c 25 a0 3b 3a f4 5e 50 3e
       0.20811428 0.0080002295 0.0007157347 0.20348722
0001c0 25 fa 8b 3d 49 37 0d 3e 32 5a 37 3e 34 2c f0 3d
       0.06834821 0.13790621 0.179055 0.11727181
0001d0 46 a0 86 ba 60 fc b2 3b b6 c2 00 be 8f d3 d7 bd
       -0.0010271154 0.0054622144 -0.12574276 -0.105383985
0001e0 b0 22 63 bd b7 d1 9d 3d 22 51 d7 bd 1b e6 fc bd
       -0.055453002 0.077060156 -0.10513522 -0.12348577
0001f0 83 40 ba bd 0d 51 8e bd e4 d8 1f be f8 62 77 3d
       -0.09094336 -0.06949053 -0.15610081 0.06039712
000200 8b b0 48 be b4 68 07 bc 7a 3e f7 bd 77 71 b2 bd
       -0.19598596 -0.008264709 -0.12072463 -0.08713048
000210 11 31 d7 3a 14 cb 13 be d6 bb 94 3d 54 d2 23 3e
       0.0016417821 -0.14432937 0.07262389 0.15998203
000220 86 94 c3 bd 80 7f 0c be e4 ca d0 3d e1 ed a0 3d
       -0.09549813 -0.13720512 0.10194948 0.07857872
000230 46 09 23 3e db 74 2e 3e 15 46 74 bd ac a6 e2 bb
       0.15921506 0.17036764 -0.059637148 -0.0069168415
000240 51 99 22 3d 50 87 18 3e ab b5 44 3d 58 b2 1e 3e
       0.039696995 0.14895368 0.048024815 0.1549772
000250 7c 8e e7 bd 01 5d 03 3e 4f 00 20 bc ca 63 48 3e
       -0.113064736 0.12828447 -0.009765699 0.19569317
000260 60 42 f7 3d 1d ee ba bd 0d 37 f2 3a fb ab 45 be
       0.12073207 -0.09127448 0.0018479541 -0.19303887
000270 82 52 c4 3d f1 87 44 3d 28 f9 15 3d 02 53 00 bd
       0.095860496 0.047981206 0.036614567 -0.031329162
000280 1e 0e 39 bd 71 ad 66 3e c2 dc c5 bd 1b 82 bc ba
       -0.04517948 0.225271 -0.09661247 -0.0014382036
000290 35 df 5f 3d 13 2a 76 bc d8 db 03 be 7a d9 1a 3c
       0.054656226 -0.01502468 -0.12876832 0.0094512645
0002a0 5d cf 0b be 8a 5e 04 3e d5 ba 13 3e fd 02 09 3e
       -0.13653322 0.12926689 0.1442674 0.13380046
0002b0 a5 a1 86 3d 5b 2f 9f bd 41 30 fd bd 61 07 08 be
       0.065738 -0.07772704 -0.12362719 -0.13284065
0002c0 ab 09 09 3e fb dd bc bd 63 02 a9 3d 53 e6 f2 bd
       0.13382594 -0.09222027 0.08252408 -0.11860337
0002d0 a6 c8 4b be eb c7 3b 3e cb 71 c1 bd ef a7 cf 3d
       -0.1990076 0.18337981 -0.094455324 0.10139453
0002e0 91 33 87 3d 09 d0 aa 3d 15 15 ec 3d 88 aa 14 3d
       0.066016324 0.08340461 0.115274586 0.036295444
0002f0 a0 e1 44 be 58 01 23 bb a3 6d ef 3d e7 4d 2b 3e
       -0.19226694 -0.0024872627 0.116908334 0.16728936
000300 4d e9 1d be 22 cb fe 3d 10 c4 dd 3d c7 da b4 3c
       -0.15421028 0.12441088 0.108284116 0.022076977
000310 b4 ee d2 bd 2d 0f 0d bd a4 c5 c2 bd ca 8f 08 3e
       -0.10299435 -0.0344383 -0.09510353 0.13336101
000320 6c 50 ca 3c eb b2 32 bd cd 8a 3f bd 90 bb 7e 3d
       0.024696551 -0.04362766 -0.04676323 0.062190592
000330 c4 d2 43 3c c0 41 1a 3e 7e 40 0c 3e 72 28 d2 bd
       0.011952106 0.15064144 0.13696477 -0.102616206
000340 38 9a 54 bd 1c e9 fd bd d0 bb 53 3e 82 1d ce 3b
       -0.051904887 -0.12397978 0.20677114 0.0062901387
000350 bf 78 38 3e 95 64 2d be 6c 93 34 bc 5a 02 b0 3d
       0.18014811 -0.169329 -0.011021476 0.085941985
000360 60 3c 25 be 9a 97 fc bd f0 20 6f 3d 6a 42 0e be
       -0.16136312 -0.12333603 0.05838102 -0.13892522
000370 eb ca 02 be 37 ed 0f be 29 7f 49 3e 7f 39 07 3e
       -0.1277272 -0.14055334 0.19677414 0.13205527
000380 f9 18 19 3e 24 75 26 3e 3d 46 0c 3d 60 75 1a bc
       0.14950933 0.16255623 0.034246672 -0.009427398
000390 c8 59 d0 3d 00 b1 4d bd a5 cf 98 3d 38 1f 18 3e
       0.101733744 -0.05021763 0.0746148 0.14855659
0003a0 18 25 2b be 88 72 5d be e7 9d 95 bd 21 8b ea bd
       -0.16713369 -0.21625721 -0.07305508 -0.11452318
0003b0 2b 72 6c bd b8 7c 80 3e 71 99 f0 3d 40 21 4f bd
       -0.057726067 0.25095153 0.117480166 -0.05056882
0003c0 86 03 3e be 84 bd d0 bd 72 75 4c 3d 63 c1 49 3d
       -0.18556032 -0.10192397 0.049916692 0.049256694
0003d0 36 19 13 be d1 f8 aa 3c fd 6d a9 bd 92 0f 2a be
       -0.14365086 0.020870598 -0.08272932 -0.16607502
0003e0 45 62 2e 3e 3f ce 0c be 01 45 32 3d 27 60 43 bd
       0.17029674 -0.13750552 0.04352284 -0.04769912
0003f0 02 44 8e bc d1 e7 08 be 7c 31 d7 3b d3 66 3a bd
       -0.017366413 -0.13369681 0.0065671783 -0.045508217

8 f4 [10]
000000 69 72 b9 bd 2d 5c 59 3d d7 22 06 bd 77 6e 15 be
       -0.09055025 0.05306642 -0.03274807 -0.1459292
000010 5e 4a e8 3c e5 cd a3 3d 74 7c be bd 9a c3 a4 bd
       0.028355774 0.07998256 -0.09301081 -0.080451205
000020 e2 97 c3 3c 79 ec 27 bd
       0.023876134 -0.040997002
